…
By: Dieter Verbeemen



=====================Agent-PARAMETERS=========================

BUFFER_SIZE: 100000
BATCH_SIZE: 128
DELTA_INIT: 0.01
prioritize_perc: 0.0
importance_sampling_weight_perc: 0
importance_sampling_weight_decay: 1.0010510543878611e-07
CALCULATE_B_XTH_PERCENTAGE: 0.999
CALCULATE_B_XTH_VALUE: 0.0001
B_VALUE_TO_MINIMUM_DECAY: 1000
GAMMA: 0.99
TAU: 0.02
LR: 0.001
UPDATE_EVERY: 8
DDQN: True
DUELING: True
episode: 0
EPSILON_TO_MINIMUM_DECAY: 20
EPSILON_INIT: 1.0
EPSILON_MAX: 0.99
EPSILON_MIN: 0.1
STATE_SIZE: 37
ACTION_SIZE: 4
SEED: None
device: cpu
qnetwork_local: DuelingQNetwork(
  (fc1): Linear(in_features=37, out_features=64, bias=True)
  (fc2): Linear(in_features=64, out_features=128, bias=True)
  (fc3): Linear(in_features=128, out_features=64, bias=True)
  (fc4): Linear(in_features=64, out_features=32, bias=True)
  (AL): Linear(in_features=32, out_features=4, bias=True)
  (V): Linear(in_features=32, out_features=1, bias=True)
)
qnetwork_target: DuelingQNetwork(
  (fc1): Linear(in_features=37, out_features=64, bias=True)
  (fc2): Linear(in_features=64, out_features=128, bias=True)
  (fc3): Linear(in_features=128, out_features=64, bias=True)
  (fc4): Linear(in_features=64, out_features=32, bias=True)
  (AL): Linear(in_features=32, out_features=4, bias=True)
  (V): Linear(in_features=32, out_features=1, bias=True)
)
optimizer: Adam (
Parameter Group 0
    amsgrad: False
    betas: (0.9, 0.999)
    eps: 1e-08
    lr: 0.001
    weight_decay: 0
)
memory: <model.replayBuffer.ReplayBuffer object at 0x7fe8c73ceb00>
tick: 0
last_loss: 0
last_weighted_loss: 0
creation_timestamp: 2019_10_19_22_19_48


=====================Brain-PARAMETERS=========================

brain_name: BananaBrain
…
